Assets/NN/UnoAgent.onnx (onnx, 360581 bytes, 8 tensors)

network_body.observation_encoder.processors.0.normalizer.running_mean f4 [29]
0	0x3d806fe6	0.06271343
1	0x3d8545e7	0.065074734
2	0x3d8482f2	0.06470288
3	0x3d8107bb	0.063003026
4	0x3ac4c045	0.0015010914
5	0x3cd94462	0.026521865
6	0x3d3daa6b	0.0463051
7	0x3d4174b0	0.047230422
8	0x3d4a04d2	0.049321003
9	0x3d43a635	0.04776593
10	0x3d4cc195	0.0499893
11	0x3d4fa244	0.050691858
12	0x3d3cf23f	0.04612946
13	0x3d44bcb8	0.04803154
14	0x3d49d368	0.04927388
15	0x3dc91fbc	0.09820506
16	0x3dc0b80b	0.094101034
17	0x3dc38b44	0.09548047
18	0x3d194171	0.037415925
19	0x3d1896bd	0.03725313
20	0x3e0394e1	0.12849762
21	0x3dc08a00	0.094013214
22	0x3ec534e2	0.3851691
23	0x3e3268cb	0.17422788
24	0x3f06d84e	0.52673805
25	0x3e038035	0.12841876
26	0x3e0588df	0.13040493
27	0x3e024d70	0.12724853
28	0x00000000	0.0

network_body._body_endoder.seq_layers.0.weight f4 [256, 29]
0	0xbc82bd54	-0.01595942
1	0xbd5c17f7	-0.053733792
2	0x3e287c66	0.16453704
3	0xbece7d59	-0.40330008
4	0xbe70748d	-0.2348196
5	0x3eaf3589	0.34220532
6	0x3e23d3ef	0.15998815
7	0xbebe39fe	-0.3715362
8	0x3d944f2b	0.072416626
9	0x3bd26ff5	0.0064220377
10	0x3d26426c	0.04059069
11	0xbd8aa250	-0.0676924
12	0xbe5adf7d	-0.21374317
13	0x3d135d71	0.035977785
14	0xbdb3505c	-0.08755562
15	0xbe828599	-0.25492552
16	0x3eb55b13	0.35421047
17	0x3e0cb449	0.13740648
18	0xbbd41748	-0.006472502
19	0xbcc0fc1d	-0.023557717
20	0xbebece16	-0.37266606
21	0xbe0a4b5f	-0.13505314
22	0xbe3085e2	-0.17238572
23	0x3de407f7	0.11134332
24	0xbebd595b	-0.36982235
25	0x3d05009d	0.032471288
26	0x3e676af8	0.22599399
27	0x3e2ced6a	0.16887441
28	0x3e5ad2f9	0.21369542
29	0x3c2349f2	0.00996636
30	0xbe8eac26	-0.27865714
31	0xbcdb17d1	-0.026744755
32	0xbe9d3235	-0.30702367
33	0x3d8e2045	0.06939749
34	0xbeac49ac	-0.33649957
35	0x3dbb261a	0.09138127
36	0xbddc039b	-0.10742875
37	0x3d99c43f	0.07508134
38	0xbe027649	-0.12740435
39	0xbe8678de	-0.2626409
40	0xbde8c7f4	-0.11366263
41	0xbe043358	-0.12910211
42	0xbeb3aa14	-0.35090697
43	0x3e36afc0	0.17840481
44	0xbd9fdc7a	-0.078057244
45	0x3e8c4361	0.27395156
46	0x3e19e5f3	0.15029125
47	0x3ee08993	0.4385496
48	0xbdae8655	-0.085217156
49	0x3dd9f010	0.106414914
50	0x3eb1e253	0.34742984
51	0xbcd7041d	-0.026247079
52	0x3df890c8	0.1213699
53	0xbc214e6c	-0.009845357
54	0xbcec29a5	-0.028828451
55	0xbe7e5323	-0.24836402
56	0xbab43766	-0.001374942
57	0x3e89175d	0.26775637
58	0xbde9327f	-0.113865845
59	0xbbe356c6	-0.0069378344
60	0x3e9afb83	0.30270013
61	0xbdadfa64	-0.08495024
62	0xbbe1e80a	-0.0068941163
63	0x3e0ca89a	0.13736191
64	0x3dc705cb	0.09717902
65	0xbdb4c652	-0.08826889
66	0x3e85e41b	0.26150593
67	0x3d0dedcb	0.034650605
68	0xbe7339f9	-0.23752584
69	0xbcaa4ca7	-0.020788504
70	0x3cb70db5	0.022345403
71	0xbdaa5494	-0.08316913
72	0x3d2e7e3f	0.042600866
73	0xbe4089a2	-0.18802503
74	0x3e5652fd	0.20930095
75	0xbe0e9b86	-0.13926515
76	0xbe37385b	-0.17892592
77	0x3b5c53f7	0.0033619383
78	0x3e2874bd	0.16450782
79	0x3e1ebbbf	0.15501307
80	0x3e2f2e61	0.17107536
81	0x3ea4551a	0.32096177
82	0x3d775c47	0.060390737
83	0x3dd4e098	0.103944
84	0xbdf18fec	-0.11795029
85	0x3d342c65	0.04398765
86	0xbdcc3cc3	-0.09972527
87	0x3dce45e2	0.10071923
88	0xbe508bd4	-0.2036584
89	0xbed453bd	-0.41470137
90	0x3e04feb1	0.12987782
91	0xbd2e66ab	-0.04257838
92	0xbdafd2a0	-0.085850954
93	0x3dc44efe	0.09585379
94	0xbe2cc752	-0.1687291
95	0x3cda9ca6	0.026686024
96	0xbdf92e98	-0.1216709
97	0x3db8fecd	0.090329744
98	0xbd723a51	-0.059137646
99	0x3e3388d7	0.17532669
100	0xbcc4ea12	-0.024037395
101	0xbe291f70	-0.16515899
102	0x3cdf84a0	0.02728492
103	0x3c2bd41a	0.010487581
104	0x3d69326d	0.056932855
105	0xbd47f28c	-0.048815295
106	0xbdf91cb8	-0.12163681
107	0xbd83889b	-0.0642254
108	0x3e830741	0.25591472
109	0xbe4b4b9c	-0.19853061
110	0x3c0e7ef0	0.008697256
111	0xbd0eb0cd	-0.03483658
112	0xbe35fab9	-0.17771424
113	0xbe430848	-0.19046128
114	0x3e065bae	0.1312091
115	0xbd2e022c	-0.04248254
116	0xbb70770f	-0.0036692058
117	0x3e15fcdd	0.14647241
118	0xbd0891fe	-0.033342354
119	0x3e947d0e	0.2900166
120	0x3ddccfd3	0.10781827
121	0xbd870c9f	-0.06594204
122	0x3d029135	0.03187676
123	0xbd767314	-0.06016834
124	0x3e2fb491	0.17158724
125	0x3e171b16	0.14756426
126	0x3e09f4d8	0.13472307
127	0x3db7f34a	0.089819506
128	0xbcf62ed3	-0.030051624
129	0x3ea33c5e	0.31881994
130	0xbbb44fa3	-0.0055026575
131	0xbdae66e1	-0.08515716
132	0x3e75e5e9	0.24013485
133	0x3d1fd4e0	0.039021373
134	0xbeab2131	-0.3342376
135	0x3e91dbeb	0.28488097
136	0xbda69390	-0.08133614
137	0x3e5dbad9	0.21653308
138	0x3ed317a1	0.41228965
139	0x3d706f54	0.05869992
140	0x3db55ef6	0.08856003
141	0x3e0934e7	0.13399087
142	0xbebc0929	-0.3672574
143	0x3e419008	0.189026
144	0xbe82fdc8	-0.25584245
145	0x3e51dc4d	0.20494194
146	0xbe5c2713	-0.2149928
147	0xbe319874	-0.17343313
148	0x3d1b49d7	0.037912216
149	0x3d33fff8	0.043945283
150	0x3d047d43	0.03234602
151	0x3db117c4	0.08647111
152	0x3d6c285b	0.057655673
153	0xbcd2a723	-0.025714463
154	0xbd280062	-0.04101599
155	0x3d6f998e	0.05849605
156	0xbe0c1a07	-0.13681804
157	0x3b64ab95	0.003489231
158	0x3db8be02	0.09020616
159	0xbec3abd4	-0.38217032
160	0xbe3c4188	-0.18384373
161	0xbd697706	-0.056998275
162	0xbe2e9c83	-0.17051892
163	0xbe998628	-0.29985166
164	0xbe6de146	-0.23230466
165	0x3e493124	0.19647652
166	0x3d04e47a	0.032444455
167	0xbda34b06	-0.07973294
168	0xbce241e3	-0.027619308
169	0xbeca92a0	-0.3956499
170	0xbdfce80e	-0.123489484
171	0x3e710de2	0.23540452
172	0xba5a0c5b	-0.0008317881
173	0xbdcdb02b	-0.10043367
174	0xbd8b1128	-0.06790382
175	0xbe1a4388	-0.15064824
176	0xbdb131a0	-0.08652043
177	0x3e0ac6d2	0.13552406
178	0x3eb1391e	0.3461389
179	0xbeec4adb	-0.4615086
180	0xbda7d9bf	-0.08195829
181	0x3da4440c	0.080207914
182	0x3e0ebb96	0.13938746
183	0xbcc2f2e9	-0.02379747
184	0x3d44d4fd	0.048054684
185	0x3ddaa36f	0.10675704
186	0x3c97598e	0.01847532
187	0x3d3e6ee8	0.046492487
188	0xbdea449a	-0.11438866
189	0x3e90e237	0.28297588
190	0xbdf070b9	-0.1174025
191	0xbeb4fb43	-0.35347947
192	0x3e602abd	0.21891303
193	0x3e845b12	0.2585073
194	0x3cc40209	0.023926752
195	0xbe15b54f	-0.14619945
196	0xbe9cdd36	-0.3063752
197	0xbc8eb656	-0.017420929
198	0xbd0409e6	-0.032236002
199	0x3d72bd65	0.059262652
200	0xbe853e19	-0.2602394
201	0x3e20643c	0.15663236
202	0xbcc67e8e	-0.024230268
203	0x3dc33c32	0.09532966
204	0xbdaed6f2	-0.08537091
205	0xbea59093	-0.32336864
206	0xbd3c354f	-0.045949277
207	0x3de34efc	0.110990494
208	0xbd160400	-0.03662491
209	0xbd1cb692	-0.03826005
210	0x3da13a24	0.078724176
211	0x3dd61c07	0.104545645
212	0x3e2d96c4	0.16952044
213	0xbec1facb	-0.37886652
214	0xbc821818	-0.01588063
215	0xba8582bf	-0.001018606
216	0xbe937833	-0.28802642
217	0xbd978d19	-0.07399959
218	0xbdf77426	-0.120827004
219	0x3e1bf329	0.15229477
220	0x3d8e6e4c	0.06954631
221	0xbd69a713	-0.0570441
222	0xbe0895f9	-0.1333846
223	0xbede7b03	-0.43453225
224	0x3dd24381	0.102667816
225	0x3e291ce5	0.16514929
226	0xbe80980e	-0.2511601
227	0xbd9beeaa	-0.07613881
228	0x3e14368d	0.14473934
229	0xbd8da2b2	-0.06915797
230	0x3e136d4d	0.14397164
231	0xbda97335	-0.08273927
232	0x3e4d12f8	0.20026767
233	0x3efb5f8f	0.49096343
234	0x3e02c5d4	0.12770778
235	0x3e935630	0.28776693
236	0xbd1e0fc4	-0.038589254
237	0xbe86b943	-0.26313218
238	0x3da8f163	0.08249166
239	0xbc00748a	-0.007840285
240	0x3eaf6c58	0.34262347
241	0x3e3b78e4	0.18307835
242	0xbe67c0c8	-0.22632134
243	0xbdc2d0ed	-0.09512506
244	0xbe1be34f	-0.1522343
245	0xbdec6433	-0.11542549
246	0xbd5f1d3b	-0.054471236
247	0xbe0ae2e0	-0.13563108
248	0xbe88250c	-0.26590765
249	0x3df499fa	0.11943431
250	0xbdd834ec	-0.10556969
251	0x3e800930	0.2500701
252	0x3d6cb211	0.057787005
253	0x3d1a93c7	0.037738588
254	0x3e1de248	0.1541835
255	0xbdf63528	-0.120218575

network_body._body_endoder.seq_layers.0.bias f4 [256]
0	0x3c1d61da	0.009605849
1	0x39cb1565	0.00038735117
2	0x3be70ceb	0.0070511005
3	0x3a9af740	0.0011822954
4	0x3c1e0dfe	0.009646891
5	0x3c6b016e	0.014343603
6	0x3c69b4d5	0.014264305
7	0x3c90f1df	0.017693458
8	0x3c43d098	0.011951588
9	0x3c148fd7	0.009067497
10	0x3c2d762a	0.010587255
11	0x3b4a6ece	0.0030888799
12	0x3c2573e3	0.01009843
13	0xbb4891df	-0.0030604524
14	0x3c1a421c	0.009415176
15	0x3c2cdd3f	0.010550796
16	0x3c908a0f	0.017643956
17	0xbb976755	-0.0046204724
18	0x3c120a8f	0.00891365
19	0x3c25c50a	0.010117779
20	0x3be0b928	0.00685801
21	0xbb371604	-0.0027936706
22	0x3c8456e1	0.016154708
23	0x3bf474bf	0.0074602063
24	0x3c1bbcd2	0.0095054675
25	0x3c705365	0.01466832
26	0x3c666752	0.014062719
27	0x3bdd6edc	0.0067576002
28	0x3c310219	0.010803723
29	0x3b8a6461	0.004223392
30	0x3ac813cb	0.0015264688
31	0x3c4a1895	0.012334962
32	0x3c5f412e	0.01362638
33	0x3c2e7ee5	0.010650371
34	0x3b5e4b21	0.0033919292
35	0x3bbe7f0c	0.005813485
36	0x3c4bc540	0.012437165
37	0x3c189310	0.009312406
38	0x3c581f4a	0.013191054
39	0x3bbf1382	0.005831183
40	0xbbf43195	-0.0074521997
41	0xbc29ee91	-0.01037182
42	0x3c36cead	0.011157674
43	0x3bfeed13	0.0077797263
44	0x3c0a2833	0.008432436
45	0x3c40f27f	0.011776566
46	0x3c415d49	0.011802026
47	0xbb77071d	-0.0037693449
48	0x3c494144	0.012283627
49	0xbbeeb55e	-0.0072848042
50	0x3c40b4e7	0.0117618805
51	0x3a317a3b	0.0006770228
52	0x3c517236	0.012783578
53	0x396ed31a	0.0002277609
54	0xbc4b3bec	-0.012404423
55	0x3c5cf66b	0.013486485
56	0x3bb8f1d2	0.0056440616
57	0xba9c29a6	-0.0011914268
58	0x3c5008e3	0.012697431
59	0x3c6adc27	0.014334715
60	0xbb78b00e	-0.0037946734
61	0x3c619c03	0.013770106
62	0x3c38b677	0.011273972
63	0x3c3b5d5f	0.011435836
64	0xbc25a358	-0.010109745
65	0xbb75a5e8	-0.003748292
66	0x3b4ed092	0.0031557423
67	0x3c56873a	0.013093764
68	0x3c893278	0.016747698
69	0x3bc84ab8	0.006112423
70	0x394e6b2e	0.00019685618
71	0xba3ee397	-0.00072818383
72	0x3b8e446d	0.004341653
73	0xbc62d40e	-0.013844503
74	0xbc319905	-0.010839705
75	0x3b14e233	0.0022717833
76	0xbac79065	-0.0015225528
77	0xbb664734	-0.0035137655
78	0x3a41ce56	0.0007393112
79	0x3c058f03	0.008151772
80	0x3c035b8c	0.008017432
81	0xbbcbcf14	-0.006219754
82	0x3c1812bd	0.009281811
83	0x3c3f6f1c	0.011684205
84	0x3c926ccf	0.01787415
85	0xbba13673	-0.004919821
86	0xbabcf61a	-0.0014416606
87	0x3c400f04	0.01172233
88	0x3bd5c56a	0.0065237777
89	0x3c154655	0.009111007
90	0x3c44b706	0.012006527
91	0xba5cb5ac	-0.0008419405
92	0x3be60a1e	0.007020249
93	0x3c36c6db	0.011155809
94	0x3ba62a8b	0.0050709895
95	0x3c5a8efa	0.013339752
96	0xbbcd81a2	-0.006271557
97	0x3c735510	0.014851823
98	0x3c3c1430	0.011479422
99	0x3bac8502	0.005264879
100	0xbc43c795	-0.0119494395
101	0x3c5c6b8e	0.013453377
102	0xbbab7f28	-0.005233664
103	0x3bdb36d4	0.0066898856
104	0xbbbf4a74	-0.005837733
105	0xbb8b897c	-0.004258333
106	0xbc13b00d	-0.009014142
107	0x3c7d6004	0.015464786
108	0x3bb37448	0.0054765083
109	0xbb448a70	-0.0029989742
110	0x3b21427a	0.0024606274
111	0x3c1c4b98	0.009539507
112	0x3bccc6f6	0.006249304
113	0x3b22f5a4	0.0024865652
114	0x3c7b0fce	0.015323592
115	0xba214417	-0.0006151809
116	0x3c7cf907	0.015440232
117	0x3c0d7c30	0.008635566
118	0x3c85cb0e	0.016332176
119	0x3ac8ac49	0.0015310134
120	0xbc4add07	-0.012381799
121	0x3b254030	0.002521526
122	0x399a86ce	0.00029473606
123	0x3bd7f7cc	0.006590819
124	0x3b03ba0e	0.002009991
125	0x3bd602ad	0.0065310807
126	0xbba4c194	-0.005027959
127	0x3babff00	0.005248904
128	0x3c27132c	0.010197442
129	0x3c795460	0.0152178705
130	0x3be2ce60	0.0069215745
131	0x3c129eb3	0.00894897
132	0x3c55fa7b	0.0130602075
133	0x3c1ec91d	0.009691504
134	0x3c0c2a7e	0.008555053
135	0xb93f7f0c	-0.00018262508
136	0xbc20e809	-0.0098209465
137	0xbba3999b	-0.0049926764
138	0x3c2a588f	0.010397091
139	0x3c222ca0	0.009898335
140	0xbc0ae263	-0.008476826
141	0xbc42e485	-0.011895304
142	0xbafb52db	-0.0019174473
143	0x3c2e0973	0.01062237
144	0xbbbafcc2	-0.0057064006
145	0xbc08496c	-0.008318286
146	0x3c528265	0.012848471
147	0x3ba441ed	0.005012742
148	0x3bfe425b	0.007759375
149	0x3aed922b	0.0018125226
150	0x3bb14d14	0.0054107998
151	0x3c75d23c	0.015003737
152	0x3b4eb57d	0.003154128
153	0xbb51573b	-0.0031942863
154	0x3c419421	0.011815102
155	0x3c3cb1c2	0.01151699
156	0x3bb9155f	0.0056482996
157	0xbc2d461b	-0.0105757965
158	0x390da67d	0.0001350883
159	0x3c364f7f	0.011127352
160	0xba52be09	-0.00080391817
161	0x3ba11dfa	0.0049169036
162	0x3c44fe44	0.012023512
163	0xb8ecc3d6	-0.00011289834
164	0x3c67daf9	0.014151328
165	0x3b88a419	0.0041699526
166	0x3b2323cb	0.002489316
167	0x3c6d7655	0.014493545
168	0xbb8912a3	-0.00418313
169	0x3c691b41	0.014227689
170	0x3be23503	0.006903292
171	0xbb844344	-0.004036339
172	0x3c1403df	0.009034126
173	0x3c88bd44	0.016691811
174	0x3c045e9c	0.008079197
175	0x3ba67966	0.00508039
176	0x3c712cb3	0.01472013
177	0x3bde565c	0.006785197
178	0x3c077ecc	0.008269977
179	0xbbe36bd9	-0.0069403467
180	0xbc6506a1	-0.013978631
181	0x3c314ef0	0.010822043
182	0x3c4db84e	0.012556149
183	0x3c18a61c	0.009316947
184	0x3c206fdd	0.009792295
185	0x3c439e2a	0.011939565
186	0x3c4b8c5a	0.012423599
187	0x3c62a743	0.013833824
188	0x3bcd7600	0.00627017
189	0xbb45226f	-0.0030080338
190	0x3c1ff112	0.0097620655
191	0x3bf79279	0.0075553027
192	0xbbc9bcc1	-0.0061565344
193	0x3c5d5484	0.01350892
194	0x3c30c5e5	0.010789369
195	0x3c2b754a	0.010464976
196	0x3c47ece2	0.012202473
197	0x3c3ec92d	0.011644644
198	0x3c1e5bb9	0.009665423
199	0xbb73abb5	-0.0037181203
200	0x3c6a5972	0.014303552
201	0x3bd0802e	0.0063629365
202	0xbbf70a6c	-0.007539084
203	0xbafda3af	-0.001935115
204	0xbb3a20b6	-0.0028400845
205	0x3b448b85	0.0029990387
206	0x3c29631a	0.010338569
207	0x3c13a7e0	0.0090121925
208	0x3c3ebe6b	0.011642079
209	0xbc379851	-0.011205749
210	0x3c1db2ea	0.009625176
211	0x3b5e36a4	0.003390708
212	0x3b9ebe85	0.004844489
213	0x3c8da2a6	0.01728947
214	0xbbc22e56	-0.005925934
215	0x3a81a5ed	0.0009891369
216	0x3b8b6973	0.004254514
217	0x3c7b0871	0.015321837
218	0x3bc6d1ee	0.006067506
219	0x3bb6cbe3	0.0055785044
220	0x3c102e6a	0.0088001285
221	0xbc0cb1fb	-0.008587356
222	0x3c8b230d	0.016984487
223	0x3c0360b9	0.008018666
224	0x3c8489d2	0.016179
225	0x3c1dcebe	0.009631811
226	0x3a5a6560	0.0008331146
227	0x3c12cb48	0.008959599
228	0xbb86af5f	-0.0041102613
229	0xbbbb0e91	-0.0057085236
230	0x3c3bf367	0.011471606
231	0x3acf5570	0.0015818309
232	0xbc24c88e	-0.010057582
233	0x3c487c63	0.012236687
234	0x3c1d9337	0.009617618
235	0x3c2dbe94	0.010604519
236	0xba0e76fd	-0.0005434601
237	0x3ad6fd7a	0.0016402446
238	0x3c0aef60	0.008479923
239	0xb9caca47	-0.0003867915
240	0xbaf17a57	-0.0018423301
241	0x3c735c09	0.014853486
242	0x3c4f20c8	0.012642093
243	0xb9c64158	-0.00037814188
244	0x3b841e74	0.0040319506
245	0x3c286b67	0.010279513
246	0xba0f1077	-0.00054574705
247	0xbbbb11ec	-0.0057089236
248	0xbb8797cf	-0.00413797
249	0x3c69ad15	0.014262457
250	0x3bd2fa46	0.0064385263
251	0x3bb27333	0.0054458617
252	0xbc74d579	-0.014943474
253	0x3c63a232	0.013893651
254	0xbb950c69	-0.0045485985
255	0x3c19cd26	0.00938729

network_body._body_endoder.seq_layers.2.weight f4 [256, 256]
0	0x3b31d28a	0.0027133548
1	0xbd34dd09	-0.044156108
2	0x3dda26fc	0.10651967
3	0xbd286bf4	-0.041118577
4	0xbdbf3424	-0.09336117
5	0x3d0886eb	0.033331793
6	0xbd1bf214	-0.03807266
7	0x3e23e5e0	0.16005659
8	0x3d14f836	0.036369525
9	0xbcb76e00	-0.02239132
10	0x3d0f6ff4	0.035018876
11	0x3daa7693	0.083233975
12	0x3de11df8	0.10992044
13	0x3c441908	0.011968859
14	0xbc3b8e0a	-0.011447439
15	0x3a87384e	0.0010316463
16	0xbd1fddb0	-0.039029777
17	0xbc50da0f	-0.012747302
18	0x3d3632db	0.044482093
19	0xbced5814	-0.028972663
20	0x3bcdeb46	0.0062841503
21	0xbd2134cb	-0.039356988
22	0xbcc11eb9	-0.02357422
23	0xbd47f5af	-0.048818287
24	0x3db8f767	0.09031563
25	0x3ccf18a6	0.025280308
26	0x3d86c7e8	0.06581098
27	0x3dadfe72	0.08495797
28	0x3d660791	0.05615956
29	0xbdc658b2	-0.09684886
30	0xbd04a020	-0.03237927
31	0x3c0b68b6	0.008508852
32	0xbd37e501	-0.04489613
33	0x3bfdac65	0.0077414983
34	0x3e44333b	0.19160168
35	0xbcaeb1a2	-0.021324936
36	0xbe0069f9	-0.12540425
37	0x3d8b57e9	0.06803877
38	0xbcfc353a	-0.0307871
39	0x3d26f67c	0.04076241
40	0xbc9bcbd6	-0.019018095
41	0x3d07b425	0.033130784
42	0xbc7c2e65	-0.015391921
43	0xbda25d27	-0.07927924
44	0x3cbd46dc	0.023105077
45	0xbb2eb3f8	-0.0026657563
46	0x3d917ac5	0.071034946
47	0x3d4513fb	0.048114758
48	0xbae1a4cf	-0.0017215254
49	0xbc81b6b4	-0.01583419
50	0xba77a8ac	-0.00094474363
51	0xbdd1a190	-0.10235894
52	0xbcdaad55	-0.02669398
53	0x3dc33003	0.09530642
54	0xbc8568e3	-0.016285365
55	0x3bef59d3	0.007304409
56	0xbd9cedfc	-0.076625794
57	0xbd91469d	-0.070935465
58	0xbda355f0	-0.07975376
59	0x3dd62e06	0.10457997
60	0x3d6323c9	0.05545405
61	0x3b093229	0.0020934439
62	0xbd8581b8	-0.065188825
63	0x3d230d29	0.039807472
64	0x3d29c7d5	0.04145034
65	0x3d5d19ec	0.0539798
66	0x3d233668	0.039846808
67	0xbd24d3ac	-0.04024093
68	0xbcdc0197	-0.026856227
69	0xbdb98f2e	-0.090605125
70	0x3d665e14	0.056242064
71	0x3bbfbbf6	0.005851264
72	0xbd6709f9	-0.056405995
73	0x3b83fe51	0.0040281196
74	0x3daaca32	0.08339347
75	0xbd3c3f51	-0.04595882
76	0xbc513dc9	-0.012771078
77	0xbd9cc5c6	-0.0765491
78	0xbd006fc8	-0.031356603
79	0x3db4690c	0.088090986
80	0x3baa9443	0.0052056625
81	0xbd9f0acd	-0.07765732
82	0x3d3f576a	0.046714224
83	0x3d93f158	0.07223767
84	0xbcd5ff89	-0.026122825
85	0x3cec1f95	0.028823653
86	0xbc6d43bb	-0.01448148
87	0xbc914b49	-0.017736094
88	0x3d221b66	0.03957691
89	0xbd58baf6	-0.052912675
90	0x3d92685c	0.07148811
91	0x3d76a3f0	0.060214937
92	0xbd343966	-0.044000052
93	0x3cf90e8b	0.030402442
94	0x3d2f1aa9	0.042750034
95	0xbcf7a35c	-0.030229263
96	0xbd44f00c	-0.04808049
97	0x3d70f442	0.058826692
98	0x3cdd6ca6	0.027029347
99	0xbb623a4a	-0.0034519606
100	0xbdbd0a6f	-0.09230506
101	0xbcde5d9d	-0.027144248
102	0xbc327659	-0.010892474
103	0x3da19538	0.07889789
104	0x3da751d3	0.081699036
105	0x3da532c2	0.08066322
106	0x3d9c214d	0.07623539
107	0xbd8c9383	-0.06864073
108	0xbdbf0592	-0.09327234
109	0xbcfa2b63	-0.030538267
110	0xbe24399e	-0.16037604
111	0x3d547e2f	0.05187815
112	0x3d7c269c	0.06156026
113	0xbe038912	-0.12845257
114	0x3e1024ee	0.14076588
115	0x3dd32453	0.10309663
116	0xbd016791	-0.03159291
117	0xbcde5ea0	-0.02714473
118	0x3b22f8f1	0.002486762
119	0x3dc72e25	0.09725598
120	0x3ada12e1	0.0016637706
121	0xbd763b9d	-0.060115445
122	0x3d39a952	0.045327492
123	0x3d51b780	0.05120039
124	0xbd8466ef	-0.064649455
125	0xbcc239ef	-0.023709266
126	0x3d699841	0.057029966
127	0x3ca5b74d	0.020229006
128	0xbd6f0167	-0.058350947
129	0xbdddc330	-0.10828245
130	0x3d009501	0.0313921
131	0x3cbbd15b	0.022926977
132	0x3cb4758f	0.022028713
133	0xbc9d4868	-0.019199565
134	0xbd9159a7	-0.07097178
135	0x3d4cb77d	0.049979676
136	0xbc9a4994	-0.018833913
137	0xbd093481	-0.033497337
138	0xbd73dd70	-0.05953735
139	0xbd9bc0a8	-0.07605106
140	0x3d17722d	0.03697412
141	0xbd327f88	-0.043578655
142	0x3d8b4611	0.068004735
143	0xbc3046a1	-0.010759027
144	0xbd7050c5	-0.058670778
145	0xbc4ac6ad	-0.01237647
146	0x3d3a226e	0.04544299
147	0x3c345a2e	0.011007829
148	0x3d810701	0.06300164
149	0xbd194c80	-0.03742647
150	0xbbe54c23	-0.0069976016
151	0x3e1b4457	0.15162788
152	0x3d864410	0.06555951
153	0x3c0c820b	0.008575927
154	0x3d2edb82	0.042689808
155	0x3c7deb0c	0.015497934
156	0x3d95d8aa	0.07316716
157	0x3c1fbcfc	0.009749647
158	0x3af456d0	0.0018641595
159	0xbda01f6e	-0.07818495
160	0xbc36c538	-0.011155419
161	0xbcd2b92d	-0.025723064
162	0x3d27473b	0.040839415
163	0xbbd519eb	-0.006503334
164	0xbdb145bb	-0.08655878
165	0x3c54d9f6	0.012991419
166	0xbd910033	-0.07080116
167	0x3cb40bfe	0.021978375
168	0xbbd922a7	-0.0066264453
169	0x3d8b827f	0.068119995
170	0x3db9107b	0.090363465
171	0x3ccdc0a8	0.02511628
172	0x3d8f3196	0.0699188
173	0xbdd1f0d4	-0.102510124
174	0x3c833cb8	0.016020164
175	0xbde169d9	-0.11006517
176	0x3d7f90ff	0.06239414
177	0x3d2985d9	0.041387413
178	0xbd85527c	-0.06509873
179	0x3da020bd	0.07818744
180	0x3d34c2d9	0.044131134
181	0xbd0c601b	-0.03427134
182	0xbd8f99e2	-0.07011773
183	0x3d8043c7	0.062629275
184	0x3cc43526	0.023951124
185	0x3d098b6e	0.033580236
186	0xbdd33fa9	-0.103148766
187	0x3d63da8d	0.05562835
188	0x3d48aa0f	0.048990306
189	0x3d4d18e9	0.050072584
190	0x3d87e5a7	0.066355996
191	0xbc7ff50b	-0.015622388
192	0x3d23fb19	0.040034387
193	0xbbfb39ae	-0.007666788
194	0x3cbf6b59	0.023366617
195	0x3d929885	0.07157997
196	0x3d452067	0.048126604
197	0x3d9a7869	0.07542498
198	0x3d03ff4b	0.03222589
199	0x3d8f8441	0.07007647
200	0x3d27ce7d	0.040968407
201	0xbc945c4c	-0.018110417
202	0x3d9039a3	0.07042243
203	0x3dc2a7ce	0.095046625
204	0xbdad634a	-0.084662035
205	0x3d00404b	0.031311315
206	0xbcbcd9e0	-0.02305311
207	0x3dbba3a9	0.09162075
208	0xbd24acd4	-0.040203884
209	0x3a6e77b9	0.00090968196
210	0x3e55f083	0.20892529
211	0xbb521c36	-0.0032060272
212	0x3b896a97	0.0041936147
213	0x3e0d5de8	0.13805354
214	0xbc09f0d5	-0.008419235
215	0x3d313ddd	0.043271888
216	0x3cec41de	0.028840002
217	0x3dbed353	0.09317651
218	0x3d763e76	0.06011816
219	0x3d846deb	0.06466278
220	0xbd95bd3e	-0.07311486
221	0xbccd56b3	-0.025065755
222	0x3d9d5bbd	0.07683513
223	0x3cacf7be	0.021114226
224	0x3d48823e	0.048952334
225	0xbd904288	-0.0704394
226	0xbc26361a	-0.010144735
227	0xbc888df8	-0.016669258
228	0xbd36dcc4	-0.044644132
229	0xbd688bee	-0.056774072
230	0x3cefe503	0.029284006
231	0xbcbc4657	-0.02298276
232	0xbd2d59ee	-0.04232209
233	0x3cda1f0c	0.026626132
234	0x3cbe6dea	0.02324577
235	0x3db25e5a	0.087094024
236	0x3ce02d46	0.027365338
237	0xbc9718b5	-0.018444398
238	0xbd71f001	-0.059066776
239	0xbd3f8904	-0.046761528
240	0xbd40d5e3	-0.04707898
241	0xbd1bb6a5	-0.03801598
242	0xbd060c1c	-0.032726392
243	0x3c375d9b	0.011191751
244	0x3d2422e3	0.040072333
245	0xbb854d7a	-0.004068074
246	0xbcb09745	-0.021556506
247	0x3cf0eaf5	0.029408911
248	0xbb8a0674	-0.004212195
249	0x3dd95564	0.1061199
250	0x3d0925b4	0.033483222
251	0xbc8641ce	-0.0163888
252	0xbbe730cd	-0.007055378
253	0x3d36f039	0.044662688
254	0xbd98ce36	-0.074612066
255	0x3d017013	0.031601023

network_body._body_endoder.seq_layers.2.bias f4 [256]
0	0x3c42f14e	0.011898352
1	0x3c3260fa	0.010887379
2	0x3b5ba1e7	0.003351325
3	0xbc4c7a9e	-0.012480406
4	0x3b1070c7	0.0022039877
5	0x3c4ae0f8	0.012382738
6	0xbb27bbed	-0.002559419
7	0xbbef0ff5	-0.0072956034
8	0xbac55702	-0.0015055838
9	0x3bfb1508	0.007662419
10	0x3c198f06	0.009372478
11	0xbc098623	-0.008393797
12	0xba00c629	-0.00049123407
13	0x3c74f2fc	0.01495051
14	0xba94b6d6	-0.0011345993
15	0x3bc4831e	0.0059970757
16	0xbbf8a244	-0.007587703
17	0x3bc8b08b	0.006124561
18	0xbbbd652f	-0.0057798843
19	0xbc0d2980	-0.008615851
20	0x3bee8790	0.007279344
21	0x3c4dce22	0.012561353
22	0x3b187b65	0.0023266908
23	0xbb97d02d	-0.004632971
24	0x3ae698aa	0.0017593105
25	0x3c2560ce	0.010093881
26	0x39d0390b	0.00039715352
27	0xbb1cbe6a	-0.0023917207
28	0x3bf3baf5	0.0074380585
29	0x3c237e68	0.009978868
30	0x3c612280	0.013741136
31	0x3bc720ee	0.0060769236
32	0xbc1a4b14	-0.009417314
33	0xbb896452	-0.0041928673
34	0x3b993858	0.004675906
35	0x3c580638	0.013185076
36	0xbb220a91	-0.0024725536
37	0x3c4212f6	0.011845341
38	0xbbe5e781	-0.007016123
39	0xba821c71	-0.0009926689
40	0x3bcab2a1	0.006185845
41	0x3c784dfb	0.015155311
42	0x3bf1fa1e	0.0073845526
43	0xbc24ca23	-0.010057959
44	0x3b1da1ab	0.002405266
45	0x3becf8c1	0.007231802
46	0x3be0f746	0.006865415
47	0x3bc04cf6	0.0058685495
48	0x3bdca0cc	0.0067330357
49	0x3977bdbf	0.00023626442
50	0x3a974fde	0.0011544188
51	0xba251d8c	-0.00062986533
52	0x3c8a3523	0.01687104
53	0x3c462a12	0.012094991
54	0xbc019a58	-0.007910334
55	0x3c33da48	0.010977335
56	0x3ac378b0	0.0014913287
57	0xbbdffb2d	-0.0068353624
58	0x3b6b20ef	0.0035877784
59	0x3c7921ab	0.015205781
60	0x3b8bffd2	0.0042724395
61	0x3c6c13c5	0.01440901
62	0xbaa2d4d7	-0.001242305
63	0x3c344c9b	0.011004592
64	0x3c4e0bef	0.012576087
65	0x3c89456a	0.016756732
66	0x39abb10f	0.0003274758
67	0x3c3b1892	0.011419432
68	0x3c350e51	0.011050777
69	0x3b8083d9	0.0039219675
70	0x3c4c33a8	0.012463488
71	0x3c069cbd	0.00821608
72	0x3b9d8a57	0.004807751
73	0x3bcdadc1	0.0062768166
74	0x3b44bc36	0.003001941
75	0x3c7eb59f	0.0155462315
76	0x3aaad18f	0.0013032424
77	0x3b28c758	0.0025753584
78	0xbbf24330	-0.0073932633
79	0xbafb17c3	-0.0019156862
80	0x3afe30c3	0.0019393194
81	0x3be479bf	0.006972521
82	0x3c10bae5	0.008833622
83	0xbc2b4e60	-0.010455698
84	0x3c723da5	0.014785205
85	0xbc489d00	-0.012244463
86	0xbc1506d6	-0.009095868
87	0xbb034891	-0.0020032267
88	0x3c6caef7	0.014446012
89	0xbc1d696d	-0.009607655
90	0x3c4993e0	0.012303323
91	0x3c046124	0.008079801
92	0xbc13619e	-0.008995442
93	0xbb258e37	-0.0025261769
94	0xb97f05a3	-0.00024320795
95	0x3c49c13d	0.012314138
96	0x3bb24a77	0.005441006
97	0x3c2855bf	0.01027435
98	0x3b8f86cc	0.0043800827
99	0x3c2fa687	0.010720856
100	0x3b9ec577	0.004845317
101	0xbb8b1154	-0.004244009
102	0x3c52ecb8	0.012873821
103	0x3c6a00aa	0.014282385
104	0x3c7841df	0.015152424
105	0x3c244ca0	0.010028034
106	0x3b355a5d	0.002767227
107	0xbc06c13a	-0.00822478
108	0xbb0aacba	-0.0021160082
109	0x3c2702a6	0.0101935025
110	0x3c247fee	0.010040266
111	0xbbb9a08e	-0.0056648916
112	0x3b89ee3a	0.004209307
113	0x3bd302ed	0.0064395578
114	0x3c229ede	0.009925572
115	0x3c3190c6	0.010837739
116	0xbc02bb97	-0.007979295
117	0x3c08e961	0.008356423
118	0xbc097a24	-0.008390937
119	0xbb3c51e8	-0.0028735343
120	0x3aa802c2	0.0012818205
121	0xbbfec5da	-0.0077750506
122	0xbaaa4997	-0.0012991902
123	0x3c519534	0.01279192
124	0x3c280be4	0.010256741
125	0xbb1bc92b	-0.0023771029
126	0xb9d0fc52	-0.00039860845
127	0xbc3c4518	-0.011491083
128	0xbc15ce85	-0.009143476
129	0x3b23307b	0.0024900723
130	0x3c705cbb	0.014670546
131	0xbc053fc0	-0.008132875
132	0x3c21a0d7	0.009865007
133	0x3c32a692	0.010903971
134	0x3bfbf70a	0.0076893615
135	0xbc014ec1	-0.007892312
136	0xbbb82c4b	-0.0056205145
137	0xba64a3d5	-0.00087219226
138	0xbc2bf589	-0.010495552
139	0xbbdd748a	-0.0067582773
140	0x3bfa1217	0.007631551
141	0x3c3034ef	0.010754808
142	0xbad2376e	-0.0016038248
143	0xbbcf55fe	-0.0063273897
144	0xbbd1d167	-0.0064031365
145	0x3c2d7fcc	0.010589551
146	0x3bc86fb4	0.0061168317
147	0x3c707ce9	0.014678218
148	0x3c475712	0.012166755
149	0x3c4f41bb	0.012649949
150	0x3c311a4a	0.01080949
151	0xbc498943	-0.012300792
152	0xbbe8dab9	-0.007106152
153	0x3bb86721	0.0056275283
154	0x3c196e9f	0.009364753
155	0x3c2d6af4	0.010584582
156	0xbc5850dd	-0.013202873
157	0x3c11ee3b	0.008906896
158	0xbc4880bf	-0.012237727
159	0x3c3552b6	0.011067083
160	0x3bdfe23a	0.006832388
161	0x3b794c80	0.0038039982
162	0x3a8c95f4	0.0010725842
163	0xbbca5d6c	-0.0061756875
164	0x3c07be27	0.008285082
165	0xbbd08f7a	-0.00636476
166	0xbb6ad206	-0.003583075
167	0x3c13f494	0.00903048
168	0x3c66ff9b	0.014099027
169	0x3b447e5f	0.002998255
170	0x3c4b50f5	0.012409438
171	0x3c4bb37f	0.012432932
172	0x3c1ec3cb	0.009690235
173	0x3a58931c	0.0008261667
174	0x3c538034	0.012908984
175	0xbc576235	-0.013145973
176	0x3b85ee92	0.0040872777
177	0xbbc397fa	-0.0059690448
178	0x3bc38caf	0.0059676985
179	0xbbca9f8a	-0.0061835693
180	0x3b845313	0.0040382235
181	0x3bcaedff	0.006192922
182	0x3c4ceebd	0.0125080915
183	0x3c508fd2	0.012729602
184	0x3af871b8	0.0018954789
185	0x3c1a54b9	0.0094196135
186	0xbb643bae	-0.003482561
187	0xbc19573d	-0.009359178
188	0x3c162e04	0.009166244
189	0x3c7b3fca	0.015335033
190	0x3c0bc738	0.008531384
191	0x3c5c58b4	0.013448883
192	0x3c52d1dd	0.012867418
193	0x3b73db4c	0.0037209569
194	0xbc1e583f	-0.009664594
195	0x3bbb0255	0.005707065
196	0x3c4eb432	0.012616204
197	0x3c244222	0.010025533
198	0x3c460c85	0.012087946
199	0x3c31d6cb	0.010854433
200	0x3c6bd2c3	0.014393511
201	0x3c5e3ea9	0.013564744
202	0x3c746047	0.014915532
203	0xbabfac09	-0.0014623414
204	0xbc598a6e	-0.013277633
205	0x3ad6b935	0.00163821
206	0xbc2f4660	-0.010697931
207	0x3ae77ba6	0.0017660751
208	0xbc1cd2e6	-0.0095717665
209	0x3c670159	0.014099442
210	0xbc094f6f	-0.008380755
211	0xbba4386f	-0.00501161
212	0x39439a80	0.00018654205
213	0xba4fe811	-0.0007931004
214	0x3a989b03	0.0011642877
215	0x3c7e60c1	0.015525998
216	0x3c418c43	0.011813226
217	0x3c59ce37	0.013293794
218	0x3b276386	0.0025541498
219	0xbbb71edd	-0.005588396
220	0xbc24f52f	-0.010068222
221	0xbc26225d	-0.010140029
222	0x3c3cd6b6	0.0115258
223	0x3c38391b	0.011244084
224	0x3c1afb17	0.009459279
225	0xbc077ecd	-0.008269978
226	0x3c2b7ba0	0.010466486
227	0x3bee8f73	0.007280284
228	0xbc1c3083	-0.0095330505
229	0xbbd3f09d	-0.0064678923
230	0x3c396a35	0.011316826
231	0x3c40af34	0.011760522
232	0x3c4a1a63	0.012335393
233	0xbbf23287	-0.0073912772
234	0x3a91a924	0.001111303
235	0x3c1908fb	0.00934052
236	0xbb951dc6	-0.0045506684
237	0xbbe0ec5a	-0.006864113
238	0x3b68d476	0.0035527027
239	0xbc3eab2a	-0.011637488
240	0xbb560306	-0.003265561
241	0x3c5b773d	0.013395128
242	0x3c3081c9	0.010773131
243	0x3c538811	0.012910859
244	0xbbe7d34e	-0.00707475
245	0x3abf8d80	0.0014614314
246	0xbc156718	-0.009118818
247	0x3c18a232	0.009316014
248	0xbbcbb5ab	-0.006216725
249	0x3bff8af7	0.0077985483
250	0xba90ec70	-0.0011056792
251	0x3be4833f	0.0069736536
252	0x3b960b9b	0.00457902
253	0xbaef7111	-0.0018267949
254	0x3c15eaa6	0.009150183
255	0x3c0d4628	0.008622684

action_model._discrete_distribution.branches.0.weight f4 [59, 256]
0	0x3a9c6366	0.0011931479
1	0x3a626fbf	0.0008637867
2	0x3aedbb4a	0.0018137482
3	0x3c324e64	0.010882948
4	0xbc096afd	-0.008387324
5	0x3bd17b04	0.0063928384
6	0xbb370bb1	-0.0027930553
7	0x3c6c556a	0.014424661
8	0x3a9537ae	0.0011384392
9	0x3a34bb58	0.00068943715
10	0x3b39f12f	0.0028372516
11	0x3c831d0f	0.016005067
12	0xbb6b5ffb	-0.0035915363
13	0xbb52c3c0	-0.0032160133
14	0x3bae293b	0.0053149736
15	0xbc451697	-0.012029312
16	0x3c1d5b66	0.009604311
17	0xbb805926	-0.0039168773
18	0xbb37cc6d	-0.0028045431
19	0x3b5a3dcb	0.0033300992
20	0xbb5be801	-0.0033555033
21	0xbbaa4523	-0.00519623
22	0xbc59dfaf	-0.013297959
23	0x3a97198a	0.0011527997
24	0x3ba148a5	0.00492199
25	0x3be99818	0.0071287267
26	0xbb8cbd9f	-0.0042950655
27	0x3ab0b179	0.0013480625
28	0xbb49d63d	-0.0030797862
29	0x3b3d5b55	0.002889355
30	0x3a33bbe6	0.0006856307
31	0xbc478790	-0.012178317
32	0xbb66a1c2	-0.003519163
33	0x3c066d19	0.008204722
34	0x3c2341bb	0.009964402
35	0xbc8a636b	-0.01689311
36	0xbc134f64	-0.008991096
37	0x3c1763b2	0.009240078
38	0x3c4307b3	0.011903691
39	0x3bb4cace	0.0055173403
40	0xbbcac492	-0.006187984
41	0x3b5cb4fb	0.0033677209
42	0xba37c0d8	-0.0007009632
43	0x3b91b7b4	0.004446948
44	0xbc24bb85	-0.010054474
45	0xba68f8f5	-0.0008887195
46	0xbae7accd	-0.00176754
47	0x3b617d10	0.0034406818
48	0xbaef4755	-0.0018255512
49	0xb8757b1c	-5.8527206e-05
50	0xbb885825	-0.0041608983
51	0x3b50c556	0.0031855903
52	0xb79d2aab	-1.8735727e-05
53	0xbb032f8e	-0.0020017358
54	0xbb3ac31d	-0.0028497644
55	0xba326848	-0.00068057
56	0x3aafa93a	0.0013401874
57	0x3c0b99b5	0.008520533
58	0x3b6ab1a6	0.0035811453
59	0xba9cf8c4	-0.0011975993
60	0xbbdd69ce	-0.0067569977
61	0xba2eacb1	-0.0006663306
62	0xba09448a	-0.00052363484
63	0xbc17e9ef	-0.009272083
64	0x3ac6e7f4	0.0015175329
65	0x3c69b136	0.014263442
66	0xbbf85a3e	-0.007579117
67	0xbbba076e	-0.005677155
68	0xbbe773f4	-0.0070633832
69	0xbc416e37	-0.011806062
70	0xbb81bcfb	-0.003959296
71	0x3b7b9666	0.0038389205
72	0xbc4d96b8	-0.012548141
73	0xbc18ecfb	-0.009333844
74	0xbbdebdbb	-0.00679752
75	0x3b6d17ef	0.0036177596
76	0x3b78be01	0.0037955048
77	0xbc0a5baf	-0.008444711
78	0x3b6bd3da	0.0035984428
79	0x3c8293ed	0.015939677
80	0x3b3d14c3	0.0028851486
81	0xba80b5ac	-0.0009819767
82	0xbb775b52	-0.003774364
83	0xbc047c12	-0.008086221
84	0x3bbc21da	0.00574134
85	0x3b154137	0.0022774467
86	0xbb497b87	-0.0030743794
87	0x3bdad86b	0.006678631
88	0xbab7c7ab	-0.0014021298
89	0xbb3e1773	-0.0029005676
90	0xb967d38c	-0.00022108684
91	0xbbaa20eb	-0.0051919124
92	0xbb943d11	-0.0045238812
93	0xbc1cfeef	-0.009582265
94	0xbbbba019	-0.0057258722
95	0x3a3c15b8	0.0007174867
96	0x3c1d7b28	0.009611882
97	0xbc3e0488	-0.01159776
98	0x3a5a5b01	0.00083296007
99	0xbc43e21f	-0.011955767
100	0xbb7b3e6f	-0.0038336774
101	0x3b5557a0	0.003255345
102	0x3b222640	0.0024742037
103	0xbb5a5e8e	-0.003332052
104	0x3a333c60	0.00068373047
105	0x3b24fa06	0.002517344
106	0xba3711bb	-0.0006983538
107	0xba526010	-0.00080251787
108	0xba584dca	-0.00082513376
109	0xbbf5f9f3	-0.007506603
110	0x39822731	0.00024824732
111	0xbc2c3cf2	-0.010512577
112	0xbb4e5c11	-0.0031487981
113	0x3b137468	0.0022499803
114	0xbb81674d	-0.003949082
115	0xbc09cfe8	-0.008411385
116	0x3a3293bf	0.0006812177
117	0xbba40ead	-0.0050066323
118	0xbc2ae68f	-0.010430946
119	0x3beb8830	0.0071878657
120	0x3b6a2a86	0.0035730912
121	0xbb9aba8f	-0.0047219465
122	0xbb1292c9	-0.0022365323
123	0x3b8777de	0.0041341623
124	0xbc96ae47	-0.018393649
125	0xbc354c05	-0.011065488
126	0xba1fed9a	-0.0006100774
127	0x3bc314df	0.0059534158
128	0xbc47bd09	-0.012191066
129	0xbb428b8f	-0.0029685234
130	0x3afec707	0.0019437977
131	0xbacb0d4d	-0.0015491635
132	0xbc43e1ed	-0.01195572
133	0xbbb0783f	-0.005385428
134	0xbb53cb03	-0.003231705
135	0xbb131944	-0.002244548
136	0x3c34e758	0.011041485
137	0xbc225594	-0.009908099
138	0xbbcf4249	-0.0063250405
139	0xbb8dc27c	-0.004326163
140	0xbc004bb8	-0.007830553
141	0xbb6465ed	-0.0034850792
142	0xbbc993f7	-0.006151672
143	0xbc303659	-0.010755145
144	0xbc56bd3b	-0.0131066395
145	0xbbb12f9e	-0.0054072877
146	0xbad2ba85	-0.0016077316
147	0xba9773b5	-0.0011554869
148	0xba5d8f60	-0.00084518455
149	0xbb000bc4	-0.0019538263
150	0x3ae92418	0.0017787246
151	0xbbe92901	-0.0071154837
152	0xbb8bbe15	-0.004264603
153	0xbb9a11e8	-0.0047018416
154	0xba5869ca	-0.000825551
155	0xbad8b4bf	-0.0016533359
156	0x3c6e0e8a	0.014529834
157	0xb908d19e	-0.00013048059
158	0x3b648707	0.0034870522
159	0xbc6a30b9	-0.014293843
160	0x3b8b6623	0.004254119
161	0xbb3d3c97	-0.0028875226
162	0x3a915b1b	0.0011089774
163	0x3a243c69	0.00062651053
164	0x3bc7b9bc	0.0060951393
165	0x3c7767cc	0.015100431
166	0xbbdb7b28	-0.006698031
167	0x3c356278	0.01107084
168	0xbc25115d	-0.0100749405
169	0x3c131f32	0.0089796055
170	0x3c2e49e4	0.010637734
171	0xbba79780	-0.0051144958
172	0x3a0c3c2b	0.0005349542
173	0x3c00de5a	0.007865513
174	0xbc0222b7	-0.007942847
175	0x3bf37416	0.00742961
176	0xb9513781	-0.0001995247
177	0x3c4cd531	0.012502001
178	0xbb2e282e	-0.0026574242
179	0xbc05234f	-0.008126094
180	0x3c364530	0.011124894
181	0xbb890775	-0.004181797
182	0x3b2e640a	0.002660992
183	0x3bef3c04	0.0073008556
184	0xbb9b5051	-0.004739799
185	0xbb49d38b	-0.0030796255
186	0xbae5e7a0	-0.0017540343
187	0xbc34a2a9	-0.011025109
188	0x3a970d87	0.0011524417
189	0xbb8ef560	-0.004362747
190	0xbb01c4b7	-0.001980109
191	0xbc0101a6	-0.007873928
192	0xbb7e7c30	-0.0038831346
193	0xbc11c412	-0.008896844
194	0x3bb76368	0.005596567
195	0xbb0a7220	-0.0021125153
196	0xbc8b0c69	-0.016973691
197	0xba745526	-0.00093205494
198	0x3b696938	0.0035615694
199	0xbb212265	-0.002458715
200	0x3afad6d6	0.0019137512
201	0xbb2e551b	-0.002660102
202	0xbc5c9cec	-0.013465147
203	0x3bbc13be	0.005739658
204	0x3aba73b9	0.0014225162
205	0xbb22ce05	-0.0024842035
206	0xbb52c6c7	-0.0032161938
207	0xbbdca6f9	-0.006733772
208	0x3bd580a3	0.006515579
209	0xbbbe7ac6	-0.0058129756
210	0x3b9159e3	0.004435764
211	0x3b16c773	0.0023007065
212	0xbc2163f3	-0.00985049
213	0xbc38a89e	-0.01127067
214	0xbab6de1a	-0.001395169
215	0xbb891593	-0.00418348
216	0xbba1afd2	-0.0049342895
217	0xbbdb91af	-0.0067007164
218	0xbb0601cf	-0.0020447855
219	0x3b13f509	0.0022576472
220	0xbc729d47	-0.014808006
221	0xbbac9b36	-0.005267526
222	0xbb6c9f77	-0.003610579
223	0x3a047fe5	0.0005054458
224	0xbbb0ea38	-0.005399015
225	0x3be7c4c9	0.007073019
226	0xbb045670	-0.0020193122
227	0xbb5cc4ff	-0.0033686755
228	0xbae5c657	-0.0017530423
229	0xbbb492e9	-0.005510677
230	0x3c5a1275	0.013310065
231	0xbb9a5e54	-0.004710952
232	0xbbb530c4	-0.005529495
233	0x3b495570	0.003072109
234	0x3ab97150	0.001414815
235	0xbc1399a4	-0.009008799
236	0xbc052245	-0.008125846
237	0x3c08b10c	0.0083429925
238	0xbb38c7e7	-0.0028195323
239	0x3b728345	0.0037004512
240	0x3b4b6afa	0.0031039105
241	0x3b4f9b18	0.0031678136
242	0xbbe6e20a	-0.007045989
243	0x3a2f55b5	0.00066884916
244	0x3bc6253e	0.00604692
245	0xbc55944e	-0.013035847
246	0x3a8907f0	0.0010454636
247	0x3b2caf77	0.0026349702
248	0xbb0c5ca2	-0.0021417518
249	0x3bd6cd8a	0.006555264
250	0x3afb06c7	0.00191518
251	0x3aec763a	0.0018040605
252	0x3bb9b1db	0.005666954
253	0xbb2dbba5	-0.002650955
254	0x3c106b9f	0.008814721
255	0xb9c86e9e	-0.0003822939

action_model._discrete_distribution.branches.0.bias f4 [59]
0	0xbb9d781b	-0.0048055775
1	0x3ab23b02	0.0013597908
2	0x3bcef4c2	0.0063157985
3	0x39da9d92	0.000416976
4	0x3b2251a5	0.0024767902
5	0x3a09281b	0.00052321114
6	0x3adc8d9d	0.0016826872
7	0x3bc1d2b6	0.0059150113
8	0x3ba0af00	0.004903674
9	0xba8bea4a	-0.0010674682
10	0xbb975a6f	-0.004618935
11	0x3b961e36	0.004581238
12	0x3b1980bc	0.002342268
13	0xbb4820d8	-0.0030537155
14	0xbbb56596	-0.0055357916
15	0xbbb54c33	-0.0055327653
16	0x3bcd61f4	0.0062677804
17	0x3a8cba8b	0.0010736746
18	0x3a1f992b	0.00060881925
19	0xbb0ac161	-0.0021172392
20	0xbac80fb0	-0.0015263464
21	0x3bde64b9	0.0067869094
22	0xba0950f1	-0.00052381965
23	0x3b5740f1	0.0032845105
24	0xbafa746e	-0.0019108185
25	0xba68a39a	-0.0008874476
26	0x3b8cc43a	0.004295853
27	0x3bbf1f65	0.0058326
28	0x3bec7c4a	0.007216965
29	0x3b774cd4	0.0037735002
30	0xbbd75cdd	-0.0065723495
31	0x3be93bd8	0.0071177296
32	0x3a468d26	0.00075741333
33	0xba9deb11	-0.0012048205
34	0x3b471f16	0.003038352
35	0xbad0bd68	-0.0015925588
36	0x3bb69f15	0.0055731633
37	0xba6347e2	-0.0008670074
38	0x3b0790c5	0.0020685655
39	0xba31f19b	-0.0006788016
40	0x3be7d06a	0.0070744054
41	0x3be5e15e	0.0070153913
42	0x3b8c537b	0.0042824126
43	0x3c1562c0	0.009117782
44	0x3941ccb4	0.00018482172
45	0x3ae8374d	0.0017716676
46	0x3ba0c88e	0.0049067205
47	0x3a2a85c3	0.00065049174
48	0x3983bf76	0.00025128917
49	0x3bc6e93a	0.0060702832
50	0x398d30e6	0.00026930048
51	0x3a0dbeef	0.00054071745
52	0xb9028024	-0.00012445502
53	0x3a878543	0.0010339398
54	0xbc67d963	-0.01415095
55	0x3bbe2ee2	0.0058039287
56	0x3997b595	0.00028936254
57	0xbb85b1dd	-0.004080041
58	0x3a120072	0.00055695244

onnx::Div_52 f4 [29]
0	0x3d768a09	0.060190234
1	0x3d7ca5d5	0.061681587
2	0x3d70c25f	0.058779117
3	0x3d748ecf	0.059706505
4	0x3c2f9cbc	0.010718521
5	0x3d4f43a3	0.050601613
6	0x3d8eae2c	0.069668144
7	0x3d8a8a34	0.067646414
8	0x3d900d2c	0.07033762
9	0x3d92cd9d	0.07168124
10	0x3d94b8ed	0.07261834
11	0x3d928fba	0.0715632
12	0x3d899f3f	0.06719827
13	0x3d909976	0.0706052
14	0x3d90e243	0.07074406
15	0x3e113543	0.14180474
16	0x3e0d5b04	0.13804251
17	0x3e0a3217	0.1349567
18	0x3db5187a	0.08842559
19	0x3db3d2af	0.08780419
20	0x3d68bea1	0.056822423
21	0x3da5ca00	0.08095169
22	0x3e95340f	0.2914128
23	0x3e99c35d	0.30031863
24	0x3e9b131c	0.30288017
25	0x3d6a4ede	0.05720412
26	0x3d6e840b	0.058231395
27	0x3d636ee1	0.055525664
28	0x3bd678f5	0.006545181
